…
x in range(28): processedImage[0][xx][yy][0] = float(image[xx][yy]) / 255 # Load the Model model = keras.models.load_model(\u0026#39;./model.h5\u0026#39;) The first exercise is asking us to answer a few basic questions and the first one is “What does the architecture look like?” We can get this information by simply calling model.summary():\n# Answer to Q1 model.summary() which provides the following print out:\n_________________________________________________________________ Layer (type) Output Shape Param # ================================================================= conv2d_1 (Conv2D) (None, 26, 26, 32) 320 _________________________________________________________________ conv2d_2 (Conv2D) (None, 24, 24, 64) 18496 _________________________________________________________________ max_pooling2d_1 (MaxPooling2 (None, 12, 12, 64) 0 _________________________________________________________________ dropout_1 (Dropout) (None, 12, 12, 64) 0 _________________________________________________________________ flatten_1 (Flatten) (None, 9216) 0 _________________________________________________________________ dense_1 (Dense) (None, 128) 1179776 _________________________________________________________________ dropout_2 (Dropout) (None, 128) 0 _________________________________________________________________ dense_2 (Dense) (None, 10) 1290 ================================================================= Total params: 1,199,882 Trainable params: 1,199,882 Non-trainable params: 0 The second question is “What was the model trained with?” and it refers to the optimizer that was used. This can also be easily retrieved using the model.optimizer variable:\n# Answer to Q2 print(model.optimizer.get_config()) which prints the following outp
…
